model_path/trained_model.pth (torch, 24221 bytes, 5 tensors)

lstm.weight_ih_l0 f4 [128, 7]
000000 ec 5b b5 3b ba 0e 37 bd 97 18 1a be 3a e5 86 3d
       0.0055346396 -0.04469178 -0.15048443 0.0658669
000010 70 b6 88 3d c1 b6 e5 3c 85 1d ea bd 67 2c 08 be
       0.06675422 0.028041245 -0.11431412 -0.13298188
000020 23 a9 77 3d b5 f5 04 3e 95 0a d5 3d 70 1e 85 3c
       0.060464036 0.12984355 0.10402409 0.016249865
000030 85 50 83 bc 4f d7 01 be 24 5a 24 be 3a 38 8d bd
       -0.016029606 -0.1267979 -0.16050011 -0.0689549
000040 95 83 60 3c 86 91 1e be a7 7d ee bd 2f ce cf bd
       0.013703247 -0.154852 -0.1164506 -0.10146748
000050 b6 7b b3 3d 81 8b 9d 3d dc d4 f4 bd 1a 9b 07 be
       0.0876383 0.07692624 -0.11954662 -0.1324276
000060 46 8a a2 3c c8 11 21 3c a3 8a bb 3d a2 12 73 3d
       0.019841325 0.0098309 0.09157302 0.05934394
000070 87 82 46 3d e9 f0 40 bc e7 42 04 be 2b 43 d4 bc
       0.048464324 -0.011776187 -0.12916146 -0.025910934
000080 13 d6 17 3e 21 2e f4 bd d5 50 97 3d c5 01 06 3e
       0.14827757 -0.11922861 0.07388464 0.13086613
000090 29 a4 01 be b7 2c e7 bd 2d 62 c8 3d f4 59 16 be
       -0.12660278 -0.112878256 0.097843505 -0.14682752
0000a0 b9 3e 48 bd f2 2d 51 bd d2 cb e8 bd 46 13 19 be
       -0.048887942 -0.051069207 -0.11367001 -0.14948758
0000b0 eb e1 ee 3d f5 27 0a 3e a8 9e 0a 3e 06 f8 62 3d
       0.11664184 0.13491805 0.13537085 0.055412315
0000c0 a0 3f 07 3e 28 41 1a be b1 47 8b 3d e2 e2 f4 bd
       0.13207865 -0.15063918 0.068007834 -0.11957337
0000d0 a5 d3 ad 3b 89 9a 0d bb 05 6e 20 3e 57 c1 d6 bd
       0.005304771 -0.0021607003 0.15666969 -0.104860954
0000e0 fa 97 54 bc 17 11 72 3d 40 41 68 bc 89 43 f5 3d
       -0.012975687 0.05909833 -0.014175713 0.11975772
0000f0 8a dc d9 bd e6 91 93 bd 88 6a e1 3d e9 00 6b bc
       -0.106377676 -0.07205562 0.11006647 -0.014343479
000100 bb c3 30 3e b9 6b 1c be 46 38 06 be 27 03 29 3e
       0.17262165 -0.15275468 -0.13107404 0.16505109
000110 ed db d6 3d c4 ca 93 3c f2 25 2d be aa a8 ba bd
       0.10491166 0.018041022 -0.16909006 -0.09114201
000120 b5 f1 48 bd 9f 9f 2f 3e 0d f7 5a bd 65 b6 06 3c
       -0.049058635 0.17150734 -0.053458262 0.008222197
000130 cf 22 c9 3a f3 80 2a be 05 e5 9f bd ca 96 07 be
       0.0015345457 -0.16650753 -0.07807354 -0.13241115
000140 c2 4c 04 3d cd 29 32 ba d9 b8 a1 bd 8a fd 2d bc
       0.032299764 -0.000679639 -0.07896585 -0.01061953
000150 12 1d f6 bd 80 c7 40 3d 91 d2 20 be fa 3b a5 bd
       -0.120172635 0.047065258 -0.15705325 -0.0806808
000160 6d 40 3f 3b 43 3c 2c be 7d 84 20 be 1a 7f 26 be
       0.0029182688 -0.16819863 -0.1567554 -0.16259423
000170 ed 7e 25 3e 79 d4 d5 bd a4 24 da bb 61 e3 d0 bd
       0.161617 -0.104409166 -0.0066572 -0.10199619
000180 f7 dc 13 be be 10 9d 3b f6 ab e7 bc db eb 19 3e
       -0.1443976 0.0047932556 -0.02828024 0.15031378
000190 e6 f4 ea bd b5 c7 60 3d f7 f3 3b 3d e2 7e ac bd
       -0.11472492 0.054877955 0.04588696 -0.084226385
0001a0 f6 24 2b 3e be d3 2b 3e 6f 44 ca 3d ba d3 95 bd
       0.16713318 0.16779992 0.09876334 -0.07315774
0001b0 b6 0a e0 3d 12 67 0b be 06 89 22 3e 99 7d b1 3d
       0.10939543 -0.13613537 0.15872583 0.08666534
0001c0 5d 94 99 3d 0a 9e 23 be 82 5a 53 bd f9 84 1a 3e
       0.07499001 -0.15978256 -0.051599987 0.15089788
0001d0 fe a7 76 3d 4b 75 eb bd fa 9f ba bd 50 55 90 bd
       0.060218804 -0.11496981 -0.09112544 -0.07047522
0001e0 6e a4 f7 3d 90 59 17 3c 23 5f 0d bc 7d 3a 92 3d
       0.12091909 0.009237662 -0.008628639 0.07140062
0001f0 c4 2a fb 3c fc 01 2e be 78 17 c1 3d 37 cc 08 be
       0.03066004 -0.16992944 0.094283044 -0.13359152
000200 49 02 2f bc 87 4d f4 bd be a2 b1 bc 24 cd 08 bd
       -0.010681697 -0.1192885 -0.021684047 -0.033398762
000210 2f 7e 33 3c e1 59 1d be 4d 27 d4 3d ec 37 9f 3d
       0.0109553775 -0.15366317 0.103590585 0.07774338
000220 c2 34 22 3c 74 88 0a 3e cd bb 13 be 6c 86 21 3e
       0.009900274 0.13528615 -0.14427109 0.15773934
000230 97 49 e8 3d 02 50 0e 3e 48 d1 d0 3d 0f 6e ae 3c
       0.11342161 0.13897708 0.10196167 0.021292714
000240 7f e1 cd 3d 0e 16 bd 3c 89 8d c1 3c 17 f0 4d 3d
       0.100527756 0.023081806 0.02362706 0.050277796
000250 b5 ac d1 3d 4a 11 5d 3d f9 70 24 be 79 f0 fe bd
       0.102380194 0.053971566 -0.1605872 -0.1244821
000260 9c dc 2a be aa cb 21 3d 50 3e a0 bd c9 6c 91 bd
       -0.16685718 0.03950087 -0.07824385 -0.07100827
000270 3e cf 19 bd 9a d4 dc bd 5d 8a 15 3d 61 d0 56 3d
       -0.037551157 -0.10782738 0.036508907 0.05244482
000280 95 52 23 be f2 b0 7e bd 7d 93 3f 3d 65 68 cd bc
       -0.15949471 -0.062180467 0.046771515 -0.025074193
000290 2d ee 32 be 97 c6 b4 bc 78 57 30 3e a2 d9 70 3d
       -0.1747367 -0.022067351 0.17220867 0.0588013
0002a0 06 79 2d bd 6a ee 55 bd f6 cb 0a bd f4 f7 11 3e
       -0.042351745 -0.052229322 -0.03388592 0.14254743
0002b0 67 12 25 bd ad b1 c5 3d 90 49 8f bd 1e d0 0c 3e
       -0.040300753 0.096530296 -0.06996453 0.13751265
0002c0 e1 c1 9e 3d 93 15 55 bc 15 0c b6 3d 18 32 e5 bd
       0.07751823 -0.013005632 0.08889023 -0.11191195
0002d0 e8 5b 07 be 41 25 2f 3e 03 49 84 3d 5a 4c 0c 3e
       -0.13218653 0.17104055 0.064592384 0.13701001
0002e0 fe d3 b2 bd 6a b6 c1 3c 57 e0 87 bd 95 1d 26 3e
       -0.087318406 0.023646552 -0.06634586 0.16222222
0002f0 58 ac 72 3d 79 4d 33 be 87 16 ee 3c 81 c0 07 be
       0.05924639 -0.17510022 0.029063476 -0.13257028
000300 dc e7 12 be c8 99 92 bd a1 a1 14 3e db 55 04 3e
       -0.1434626 -0.07158238 0.14514782 0.12923376
000310 dc de c8 3d 02 6c ad bc b7 cf d4 3d 46 2f 85 3b
       0.09808132 -0.021169666 0.10391181 0.0040644733
000320 86 e1 02 be 36 e8 20 3e 4a b3 19 bd e4 10 ff bc
       -0.12781343 0.15713581 -0.0375245 -0.031135984
000330 f6 cb 19 3e 32 08 1c 3d 82 a7 f6 3d 85 1e c7 3d
       0.15019211 0.038093753 0.12043668 0.09722618
000340 7e a6 d0 3d 2d 15 ea 3d 1d 9c 2a be d1 0f dc 3d
       0.10188006 0.1142982 -0.16661115 0.10745204
000350 c9 67 75 bd d8 3d 79 bd 15 37 20 3e ce 1a 8d bd
       -0.05991343 -0.060849994 0.15646012 -0.06889878
000360 09 aa db bc 20 a6 57 3d 25 c0 c8 bd 03 32 14 be
       -0.026814478 0.052648664 -0.09802274 -0.14472203
000370 3d a5 6c bd 75 ce a1 bd 8a 59 fc bd fd ab 8c 3d
       -0.05777477 -0.07900707 -0.12321766 0.06868742
000380 54 12 37 3b 63 85 07 be 29 66 0b be ff d4 f8 bd
       0.0027934508 -0.13234477 -0.1361319 -0.12150001
000390 31 67 57 3d d0 1d dc bd ed 41 af 3c 4a ec 33 3e
       0.052588645 -0.10747874 0.02139374 0.17570606
0003a0 10 ab a9 bd ed fa d8 bd 54 51 33 be 33 2a 43 bd
       -0.08284581 -0.10594735 -0.17511493 -0.047647666
0003b0 9b c1 61 bd 95 92 54 3c d5 e2 d1 3c 9f 41 b2 3c
       -0.055116277 0.012974401 0.025620857 0.021759806
0003c0 d0 89 84 bc e5 bf 52 bd a6 e1 04 3d 20 8d fa 3c
       -0.016178995 -0.051452536 0.032441758 0.030584872
0003d0 85 2e 51 3c c1 6f 0d be f9 41 2f be 8e c8 17 bd
       0.012767439 -0.13812162 -0.1711501 -0.0370565
0003e0 80 4e 5d bd cf a5 2a 3e 07 77 15 be aa f7 52 bd
       -0.05402994 0.16664813 -0.14596187 -0.051505722
0003f0 2c 28 9e 3d 8e bc db bc f1 25 ca bd 25 9e fb 3d
       0.07722506 -0.026823308 -0.09870518 0.12286023

lstm.weight_hh_l0 f4 [128, 32]
000000 48 26 85 bd ff 88 d1 bd 58 ab 34 3d e5 8f 2e 3e
       -0.06501442 -0.10231208 0.04410872 0.17047079
000010 59 5d cc 3d 51 b2 0c 3d 51 6a 6a bd 0f 0f 25 3e
       0.09978742 0.034349743 -0.057230297 0.16119026
000020 a9 5f a4 3c 52 d9 cd 3d 50 61 00 3e 83 08 38 3d
       0.020065146 0.10051216 0.12537122 0.044929992
000030 54 48 0a be 96 53 1d 3e 7f f1 fb bd 41 05 a7 bd
       -0.13504153 0.15363917 -0.12301921 -0.08155299
000040 4c e2 b7 3d 87 ff d7 3d f1 f4 2c be f6 2c a5 bd
       0.089787096 0.10546785 -0.16890313 -0.08065216
000050 8d d5 06 bd 56 6b 6e bb e7 d0 b1 3d 2f ea f0 3d
       -0.0329185 -0.0036379895 0.08682423 0.11763417
000060 fa cc a1 3d 74 33 11 3c 57 1c 00 3e df 1d d7 3c
       0.07900424 0.008862365 0.12510811 0.02625936
000070 23 dd 22 bd 28 52 9a bd 8b 36 87 bd a3 57 1c bd
       -0.039761674 -0.07535201 -0.066022 -0.038169514
000080 67 8b 65 3c 16 7a 0f bd c5 10 30 be 79 0f b0 bc
       0.014010287 -0.03502854 -0.17193897 -0.021491753
000090 6e 3d 8f 3d b8 87 dd 3d 64 5d 06 be c9 dd 03 bd
       0.06994139 0.10816902 -0.13121563 -0.032193933
0000a0 73 3d 3e 3c 7c a1 1a be 00 0f ff bd 7c 2f 14 be
       0.01161133 -0.15100664 -0.12454033 -0.14471239
0000b0 af 8a 97 bd bf 57 05 3e c6 d7 fd bc fb 0b da 3d
       -0.07399499 0.13021754 -0.030986678 0.10646816
0000c0 c5 3d 2e 3e f9 8f 59 bb dd 05 ee 3b 8e a3 29 3e
       0.1701575 -0.0033197387 0.0072638826 0.16566297
0000d0 d2 63 44 bd 03 de bd bd 32 1f 6d bd 0f 4c 63 3d
       -0.04794676 -0.09270861 -0.05789108 0.055492457
0000e0 19 5c f9 bc 57 f3 cd 3d d2 dc 02 be 2b 9b d4 bd
       -0.030439423 0.10056179 -0.12779549 -0.103811584
0000f0 1e 64 8c bd dd 16 1b be b0 21 26 bd da 42 a5 bd
       -0.06855033 -0.1514544 -0.04055947 -0.080693915
000100 72 f5 fc bd 6a d0 90 bd cd 1e d9 3d a6 e9 2e bd
       -0.123515025 -0.07071002 0.10601578 -0.042703293
000110 63 43 24 be f1 22 cf bd 3e 32 c5 bd 20 58 23 be
       -0.16041331 -0.101140864 -0.096287236 -0.15951586
000120 e8 39 16 3e 93 8a 84 bd 04 f4 28 be 6f 2a b8 bd
       0.14670527 -0.064717434 -0.16499335 -0.089924686
000130 ca 17 2d be 47 0b 89 3c 41 e9 a9 3d 27 a8 eb bd
       -0.16903606 0.01672901 0.08296443 -0.11506682
000140 a5 63 0a be 89 f0 85 3d 98 e4 8f 3c a4 1b 94 bc
       -0.13514574 0.06540019 0.017565057 -0.018079586
000150 1b 4a 9b bd 34 fc 59 bd 58 e1 1c be bb b2 f4 bd
       -0.07582494 -0.053219035 -0.15320337 -0.11948153
000160 21 10 9a bd 1e 07 63 bd bc cb 23 be bb c2 1f be
       -0.075226076 -0.05542671 -0.15995687 -0.15601628
000170 f8 8f 94 3d 8b 1a 8a 3d 73 47 ca 3d 8a d5 4b bd
       0.07254022 0.06743344 0.09876909 -0.049764194
000180 33 c3 08 bd fa bf 33 be 86 50 82 bd 0a bc 2a 3c
       -0.03338928 -0.17553702 -0.06363015 0.010420809
000190 8a a5 4c bc f7 e8 29 be 37 38 26 be fc ca d2 3d
       -0.012490639 -0.16592775 -0.16232382 0.102926224
0001a0 77 be c4 bd e8 5e 20 3d c8 b3 ee 3d 2b eb 23 be
       -0.09606641 0.03915301 0.11655384 -0.16007678
0001b0 0c 3e 0f 3d 4e 25 45 bd 79 6c d3 bd 60 0e ac 3d
       0.034971282 -0.04813128 -0.10323424 0.08401179
0001c0 bf c0 2e bd 10 f1 73 bd 2f aa 03 3e 65 aa 21 3e
       -0.042664286 -0.059556067 0.12857889 0.15787657
0001d0 03 a2 23 3e fc fb a2 3c ad 9d 69 3a 7d 4b a1 3d
       0.15979771 0.019895546 0.000891174 0.07875726
0001e0 13 2c 04 3d bf 7c 19 3e ba db 97 bd 93 ec 12 3e
       0.032268595 0.14988993 -0.074149564 0.14348058
0001f0 65 5e b8 bd 2f 44 09 3e 27 15 9d bd bd 95 92 3d
       -0.09002379 0.13404916 -0.0767005 0.071574666
000200 fe 7c 11 bc 15 2c 4a 3d b2 4a 00 3e 4d 9f 17 bc
       -0.008879898 0.049358446 0.12528494 -0.009254289
000210 f5 4f 31 be 4d 44 d9 bd 78 a7 be bc a6 47 8d 3d
       -0.17315657 -0.106087305 -0.023273215 0.068984315
000220 7c 5c 2b 3e a4 ee 88 3d e6 79 33 3d 0b f8 29 3e
       0.16734499 0.06686142 0.043817423 0.16598527
000230 ac 90 28 3d 65 84 cc bc 2f bd b9 bd e5 f0 2c be
       0.041153595 -0.024965474 -0.09069287 -0.16888769
000240 46 e6 32 3e 1d be d4 bd 55 43 24 be 62 2b e6 bd
       0.17470655 -0.10387824 -0.1604131 -0.11238743
000250 69 c3 08 be 5e dc b8 bd 9e da 11 bd b1 ff 25 3e
       -0.13355793 -0.09026407 -0.03560888 0.1621082
000260 c1 33 7c bd b7 70 68 3d 5e 11 8f bd 33 6d 5c 3d
       -0.061572794 0.05674812 -0.069857344 0.053815078
000270 3f f0 03 3e 6a 53 42 bd 66 54 2b be a4 e2 c3 3c
       0.12884615 -0.04744283 -0.16731414 0.023911782
000280 f9 e1 26 3e 8e af 03 be fb 2f cf bd 73 88 f0 3d
       0.16297139 -0.12859938 -0.101165734 0.117447756
000290 9d 4b 03 3c eb 03 bc 3c 22 71 a7 3d 22 67 7b 3d
       0.008013633 0.022951087 0.08175875 0.061377652
0002a0 9c 7d 31 3e 30 e2 30 3e 0d fb 5e bc 84 cc 2d be
       0.17333072 0.17273784 -0.01360966 -0.16972548
0002b0 16 92 26 be 19 10 c8 bd 90 f3 55 bd 30 79 22 3e
       -0.16266665 -0.097686954 -0.052234232 0.15866542
0002c0 e6 49 12 3e 87 03 e9 3c 2a 4f 7e bd 1b 24 b3 bd
       0.14286003 0.028444065 -0.062087215 -0.08747121
0002d0 2f c3 39 bd 70 0a ad 3d e8 76 2a be a1 60 1c 3d
       -0.045352157 0.084492564 -0.16646922 0.03817809
0002e0 d1 87 40 3b bc 74 d5 3d b6 0c 1b 3d 8a c9 99 3d
       0.0029377828 0.10422656 0.03785392 0.07509144
0002f0 ef da 3a 3d 16 18 67 bc 4a 17 03 bc 54 a0 13 3e
       0.045618948 -0.014104864 -0.008001158 0.14416629
000300 7a 4e 72 bd 3e 07 da bd 14 81 66 3d 1d 7d a0 3c
       -0.059156872 -0.106459126 0.056275442 0.019590909
000310 3b 09 11 be f3 f5 32 be 58 65 a1 bd c6 2d 0b 3e
       -0.14163677 -0.17476635 -0.07880658 0.1359168
000320 42 3e 2f 3d a1 36 9d bd ee 2c fd bd 5e 24 cd bd
       0.042783983 -0.07676435 -0.12362085 -0.10016702
000330 76 f3 12 3e 17 bc 6c 3d 3e 6b d8 3d cb 30 2b be
       0.14350685 0.057796564 0.1056733 -0.16717832
000340 53 50 ca bd 51 a7 9a bd e3 59 c2 bc 64 ff eb bd
       -0.09878602 -0.07551444 -0.023724502 -0.11523321
000350 3e 8b cf 3d 46 81 c5 3d 68 71 f5 bd 1c a4 e0 bb
       0.1013398 0.096437976 -0.11984521 -0.006855501
000360 f9 b7 2e be 25 1e 09 3e 2f d2 15 be a8 38 74 bd
       -0.17062367 0.13390405 -0.1463096 -0.059624344
000370 4b af 2e be 5e d6 d4 3d eb ec 30 be 8d 67 23 bc
       -0.17059056 0.1039245 -0.17277877 -0.009973419
000380 eb f0 1d bd 3d 0d c3 3d f2 8e 42 3d 40 a2 50 3b
       -0.038559835 0.095240094 0.047499605 0.003183499
000390 bc d2 79 bd d0 e8 fd bd e4 99 2c be df ae 14 be
       -0.060991988 -0.12397921 -0.1685558 -0.14519833
0003a0 a3 8a a4 3d 90 ee 86 bc cb d4 1c 3d 15 cc 10 3e
       0.08034255 -0.016471177 0.038288873 0.14140351
0003b0 05 5b bd 3d a1 0f c9 bd c9 1a 82 bd ec 4e 10 3e
       0.09245876 -0.09817434 -0.06352765 0.14092606
0003c0 46 4a 8e 3d e1 10 30 be 05 28 0e be 78 4e 2f 3e
       0.0694776 -0.17193939 -0.13882454 0.17119777
0003d0 f7 8a 64 3d a9 ed f9 3d d4 89 a9 bd 0d 33 cb bd
       0.05579659 0.12203533 -0.08278242 -0.099218465
0003e0 e2 21 ad bd 99 d3 2d 3e 30 ae d1 3d 72 ce 3f 3d
       -0.08453728 0.1697525 0.10238302 0.04682774
0003f0 ce 44 30 be f3 89 27 be fb 3a 84 bd 5e 19 70 bd
       -0.17213747 -0.16361217 -0.06456562 -0.058617942

lstm.bias_ih_l0 f4 [128]
000000 87 63 e1 bd bd 8c a4 bc d4 bf ef 3d 78 b1 18 3e
       -0.110053115 -0.02008664 0.1170651 0.14911449
000010 cc 24 27 bc df ed be bb 32 d6 09 3e b3 86 0d be
       -0.010201644 -0.0058266963 0.13460615 -0.13820915
000020 cc 8f ce 3d f1 9e 1d 3e 0c 1e f7 3d d9 5b 3b 3d
       0.10086021 0.15392663 0.12066278 0.04574189
000030 42 dc 32 bd e2 b7 95 bd c3 1e 2e 3e 74 9a 8e 3d
       -0.043667085 -0.073104635 0.17003922 0.06963053
000040 45 7a 33 be cb 90 a6 3d 71 00 f0 bd cc db 03 3e
       -0.17527111 0.08133086 -0.11718834 0.12876815
000050 58 b7 32 3e 3a b4 06 3d c6 da 7e 3d b4 5a 88 3d
       0.17452753 0.03288672 0.062220357 0.06657925
000060 9e 4e e4 bd 11 d1 96 3d e1 e4 ff bd 8b b8 85 bd
       -0.111478075 0.07364095 -0.12494827 -0.065293394
000070 d3 d4 12 bd 0c 7f 44 bd e5 fc 99 bd 67 eb 19 3e
       -0.035847496 -0.047972724 -0.07518939 0.15031205
000080 dc 3a c7 3d da da 13 bd 78 54 1d 3d e4 11 eb 3d
       0.097280234 -0.036097385 0.038410634 0.11478022
000090 e5 47 2a 3e c0 70 13 be 5d fe ac bd 93 f9 f2 bd
       0.16628988 -0.1439848 -0.084469534 -0.11864009
0000a0 f4 2f 13 3e 66 63 4d bd f9 e6 2e bc 5c b2 95 3d
       0.14373761 -0.05014362 -0.010675185 0.0730941
0000b0 b6 3c 33 3e 64 da dc 3d 1d 25 21 be fa 24 9a 3b
       0.17503628 0.10783842 -0.15736814 0.004704115
0000c0 30 57 47 3c 43 5a 53 3d ba 06 30 3e 60 59 95 bd
       0.012166783 0.051599752 0.17190066 -0.072924376
0000d0 59 6b 0b 3e cf 88 a7 3d f3 a4 0a 3e 01 4a 0d 3e
       0.13615169 0.08180391 0.13539486 0.13797761
0000e0 9d 7b c1 bd e3 d1 3c bd 46 e4 33 3e a9 ca af 3c
       -0.094474055 -0.0460986 0.17567548 0.02145894
0000f0 8f 1a 4a 3c 4d 83 4e bd a5 d9 22 3d 15 c0 8c 3d
       0.012335434 -0.050418187 0.039758343 0.06872574
000100 1d f4 c9 bb 0f c6 06 3d d3 df c1 bb aa 33 a2 3d
       -0.006163134 0.032903727 -0.0059165745 0.079200104
000110 a7 d3 e0 3d a0 8c 34 be 4e f4 8f 3d 1c 91 db 3d
       0.109778695 -0.17631769 0.07029019 0.10721037
000120 35 5d 14 be 7c 84 19 3e 30 7b 07 3d ab 8f 15 be
       -0.1448868 0.14991945 0.033076465 -0.14605586
000130 c9 5a 8f bd 9f 31 e7 bd f7 4d 16 3e 7e 6f 2d 3e
       -0.06999738 -0.11288761 0.14678179 0.16937062
000140 5c 81 a8 bc 49 c9 93 bd ee 5b c7 bd a1 e8 11 3d
       -0.020569496 -0.072161265 -0.09734331 0.035622243
000150 02 7d 8a 3c 1a e2 b0 bc c5 c9 aa bd 50 d3 31 3e
       0.016905311 -0.021592189 -0.08339266 0.17365766
000160 ef 47 6e 3d 0a 05 20 bd 35 c1 5d 3d 0c b5 45 bd
       0.05817407 -0.039067306 0.054139335 -0.048268363
000170 f8 b3 07 be 20 44 13 be 8b 8c 32 be 02 86 14 be
       -0.13252246 -0.14381456 -0.17436425 -0.14504245
000180 a9 93 ea 3c b2 9c b0 3d 94 40 b3 3c f5 1c 59 3d
       0.028634863 0.08623637 0.02188138 0.05300613
000190 ea 10 f6 3d a4 88 00 3d ed 94 06 3e 2a 93 68 bd
       0.12014945 0.03138031 0.13142748 -0.05678097
0001a0 84 3a 99 3d a7 9d 02 3e 93 ed 9c bd f0 bc 16 bb
       0.07481864 0.12755452 -0.07662501 -0.00230008
0001b0 10 cc 13 be 01 6c 03 3e 32 a2 07 be 41 1c e7 3d
       -0.14433312 0.12834169 -0.13245466 0.11284686
0001c0 ec bd 33 be 17 99 a8 ba 69 7f c4 bd 2e cd bc bc
       -0.17552918 -0.0012863007 -0.09594614 -0.023047056
0001d0 a8 c4 2b be 8f d4 fd 3d 26 5e 0f 3e 7e ce 75 bc
       -0.16774237 0.12394058 0.14000759 -0.015002845
0001e0 05 2f d1 bd 08 ba 21 bd c0 40 5a 3d ac 31 18 bc
       -0.102140464 -0.039484054 0.053284407 -0.009289186
0001f0 9d ec 83 bc b4 7c 05 3c 3b e2 78 bd b0 f9 04 3e
       -0.016104037 0.008147407 -0.060762625 0.12985873

lstm.bias_hh_l0 f4 [128]
000000 ac 2e bd 3d 15 48 82 3d fd e7 1b be 14 f3 a4 bd
       0.092374176 0.06361405 -0.15225215 -0.08054176
000010 93 49 18 be 6c 62 ce 3d 43 11 e7 bd 84 e1 2f be
       -0.14871816 0.10077366 -0.11282589 -0.17175871
000020 71 01 bc 3d 94 3c 37 bd 13 ac ac 3c a6 f3 77 3d
       0.091799624 -0.044735506 0.021078145 0.060535096
000030 b3 56 2b be 1a 95 23 3e a1 ea 63 3d 88 68 00 bd
       -0.16732292 0.15974846 0.05564368 -0.03134969
000040 b5 f1 d5 3c 2b 97 82 3c 65 a4 97 bd 3a c5 05 bd
       0.026116231 0.015941223 -0.07404403 -0.032658793
000050 2d b5 30 3d ad 65 12 bd 26 88 2e be 3b 0e 10 3e
       0.043141533 -0.035741497 -0.17044124 0.14067928
000060 9e 68 5d bb e8 e1 f5 3d 3d 71 18 be 23 dd 20 3e
       -0.003378428 0.12005979 -0.14886947 0.15709357
000070 9c be 33 be 3d 16 34 be 75 b6 f8 3c 66 ed 37 3d
       -0.1755318 -0.17586608 0.03036044 0.044904135
000080 48 00 c9 3d af 2d 33 be 9a e4 27 bd 4c c5 a8 bd
       0.09814507 -0.17497896 -0.040989496 -0.082407564
000090 8e 40 1d 3e 45 4b 14 be a5 6e 0c 3e 43 ea e1 bb
       0.15356657 -0.14481838 0.13714083 -0.0068943813
0000a0 a6 a3 8b 3c 80 44 07 be b5 da a2 bd b0 39 65 bd
       0.017045807 -0.13209724 -0.07951871 -0.05596322
0000b0 f2 57 9a bd 79 7e d9 3d c5 93 a7 3c 7b 5d a2 bd
       -0.075363055 0.10619826 0.020456204 -0.07927986
0000c0 1c 2f d5 3d 48 32 11 be 93 b8 89 3d 8a c2 68 3d
       0.10409376 -0.14179337 0.06724658 0.056826152
0000d0 d5 8a 29 3d a9 11 12 3c 25 fb 14 be de 67 f2 3c
       0.041392166 0.008915343 -0.14548929 0.029590543
0000e0 4f 62 8f 3c 4c 8f bc 3d c3 51 03 3e 9c b8 76 bd
       0.017502932 0.09207019 0.12824158 -0.06023465
0000f0 f3 13 a3 bd 18 1b ac 3d 18 cd e1 bc 6b 47 e3 3d
       -0.079627894 0.08403605 -0.027563617 0.11097606
000100 45 ab 36 3d a3 51 9a 3d 6b 6d 30 be f8 56 32 be
       0.04459693 0.07535102 -0.1722924 -0.17415988
000110 b3 3a ca 3d 77 94 75 3d 8e dc 1a be af 53 ac 3d
       0.09874477 0.05995604 -0.15123197 0.08414399
000120 87 36 82 bd 96 b4 98 3d b4 96 a2 bd 5a c7 2b 3e
       -0.063580565 0.07456319 -0.079389006 0.16775265
000130 2c 48 67 3c ca c3 6e 3d ff c5 8e bc 7a 4a 09 bd
       0.014116328 0.058292188 -0.017428396 -0.033518292
000140 89 f5 bf bc 0a 4c bd bd 23 4e fc bb 2c 71 91 3d
       -0.02343251 -0.09243019 -0.0076997443 0.07101664
000150 af 7b fb 3d c6 b2 27 3e a4 53 56 3d 1b 3f 4b 3d
       0.1227945 0.1637679 0.05232586 0.04962073
000160 09 44 ab bd d3 30 bd bd c0 ad 63 bb 89 b3 3a bd
       -0.08362586 -0.09237828 -0.0034741014 -0.045581374
000170 fc c5 01 be 5b 33 c1 bd 83 35 34 be 0b a0 cd 3d
       -0.12673181 -0.094336234 -0.17598538 0.100402914
000180 5e 3c b5 bd 63 74 f8 3c b2 91 0a be 24 cf f8 3d
       -0.08849405 0.030328935 -0.13532141 0.12148884
000190 7e 2e 28 bd 04 ea 2f 3e 4d 0d 4a bc 18 22 0b 3d
       -0.041059963 0.17179114 -0.012332273 0.03396806
0001a0 9b de 93 3b 27 32 9b 3d b4 ca 2b bd 25 5a 1e 3d
       0.0045126206 0.07577925 -0.04194136 0.038660187
0001b0 85 2f 9e bc 17 b1 d4 bd 8a 95 2f 3c 4b ad 12 bd
       -0.019309768 -0.1038534 0.010716805 -0.035809796
0001c0 f5 1d 1d 3d 88 33 2b 3e a8 21 08 be d5 1d f8 bd
       0.038358647 0.16718876 -0.13294089 -0.12115065
0001d0 7b c2 5a bd 9c ad 09 3e d3 aa d4 bd 59 ed 2d be
       -0.053408127 0.13445133 -0.10384145 -0.16985072
0001e0 66 10 86 bc 69 9f 24 3e 62 8b 0c 3d 75 e0 0f 3e
       -0.016365241 0.16076435 0.034312613 0.14050467
0001f0 91 99 30 3e 50 dc 23 bd 70 19 52 3d 2a 03 b4 3d
       0.17246081 -0.04000503 0.05129379 0.08789666

fc.weight f4 [1, 32]
000000 fb 72 cc 3d a9 aa 1f 3e 1d af 1a be e1 23 2d be
       0.09982868 0.15592445 -0.15105863 -0.16908218
000010 9e 06 af bc 75 54 b9 3d ad 90 cf bd 23 07 22 3e
       -0.02136546 0.09049312 -0.101350166 0.15823035
000020 f2 33 e6 bd 5b 3e 14 3d e1 73 c3 3d ce 24 61 3d
       -0.112403765 0.03619228 0.095435865 0.05496674
000030 b3 13 14 3e ae 73 7c bd 5e 30 ff bd c2 86 34 be
       0.1446064 -0.06163376 -0.12460397 -0.17629531
000040 c9 2c 75 3d 41 88 c7 3d 9a cb a4 bd 70 b2 49 bd
       0.059857164 0.09742785 -0.080466464 -0.049242437
000050 83 45 32 3e 7f aa c7 3d 39 15 96 3c a2 c2 7c 3c
       0.17409329 0.097493164 0.018320667 0.015427263
000060 75 0b 0d bd ed cf 07 be db 80 92 3c 50 60 58 bd
       -0.034434754 -0.13262911 0.017883709 -0.052826226
000070 1c c3 e7 bd 42 4c a4 3d a5 44 7a bd 1e f7 49 3c
       -0.11316511 0.080223575 -0.06110062 0.012326984
